__________________________________________________________________________________________________
Layer (type)                    Output Shape         Param #     Connected to
==================================================================================================
image (InputLayer)              (None, 28, 952)      0
__________________________________________________________________________________________________
reshape (Reshape)               (None, 28, 952, 1)   0           image[0][0]
__________________________________________________________________________________________________
lambda (Lambda)                 (None, 315, 28, 10,  0           reshape[0][0]
__________________________________________________________________________________________________
time_distributed (TimeDistribut (None, 315, 128)     313856      lambda[0][0]
__________________________________________________________________________________________________
dropout_2 (Dropout)             (None, 315, 128)     0           time_distributed[0][0]
__________________________________________________________________________________________________
batch_normalization (BatchNorma (None, 315, 128)     512         dropout_2[0][0]
__________________________________________________________________________________________________
bidirectional (Bidirectional)   (None, 315, 512)     790528      batch_normalization[0][0]
__________________________________________________________________________________________________
dropout_3 (Dropout)             (None, 315, 512)     0           bidirectional[0][0]
__________________________________________________________________________________________________
batch_normalization_1 (BatchNor (None, 315, 512)     2048        dropout_3[0][0]
__________________________________________________________________________________________________
bidirectional_1 (Bidirectional) (None, 315, 512)     1576960     batch_normalization_1[0][0]
__________________________________________________________________________________________________
dropout_4 (Dropout)             (None, 315, 512)     0           bidirectional_1[0][0]
__________________________________________________________________________________________________
input_length (InputLayer)       (None, 1)            0
__________________________________________________________________________________________________
y_true (InputLayer)             (None, 97)           0
__________________________________________________________________________________________________
softmax_output (Dense)          (None, 315, 80)      41040       dropout_4[0][0]
__________________________________________________________________________________________________
lambda_1 (Lambda)               (None, 1)            0           input_length[0][0]
__________________________________________________________________________________________________
label_length (InputLayer)       (None, 1)            0
__________________________________________________________________________________________________
ctc_loss (Lambda)               (None, 1)            0           y_true[0][0]
                                                                 softmax_output[0][0]
                                                                 lambda_1[0][0]
                                                                 label_length[0][0]
__________________________________________________________________________________________________
ctc_decoded (Lambda)            (None, None)         0           softmax_output[0][0]
…
